best_svm_model.pth (torch, 94435 bytes, 4 tensors)

random_weights f4 [19, 1000]
000000 a3 d6 c2 3e 10 0f 84 bf fa ee 13 bf 8a 87 a4 3f
       0.3805438 -1.0317097 -0.57786524 1.2853863
000010 cf 44 e2 3f ef 32 4c bf f9 bc 53 bf d5 0d 7e bf
       1.7677249 -0.7976522 -0.82710224 -0.99239856
000020 78 2a f3 bd f4 35 72 be 4f fb 44 bf f5 4a 87 3d
       -0.11873335 -0.23653394 -0.76945966 0.06606094
000030 b0 00 79 3f ad d3 a0 3e c5 3f 49 3e fb 5a be 3f
       0.97266674 0.31411496 0.19653232 1.4871515
000040 7e 0f 8c be fc a5 83 bf 63 37 66 bd 1c 63 fe 3f
       -0.2735557 -1.028503 -0.056205165 1.9873996
000050 e0 28 51 3f ec d9 29 3e 53 92 16 3f 40 03 9b 3f
       0.81702995 0.16587037 0.58817023 1.2110367
000060 90 46 0d bf c4 fb 5c 3f 8b 10 cd bd 92 cf 74 3f
       -0.55185795 0.86321664 -0.10012921 0.9562923
000070 d0 62 54 bf c2 7a 17 3f d3 76 b1 3f 36 ad 53 3f
       -0.82963276 0.5917169 1.3864387 0.82686174
000080 16 1b 92 3e 6d e1 b1 ba 95 f8 8e 3f 5c fc d9 3e
       0.2853629 -0.001357121 1.1169611 0.42575347
000090 0c 1b dc 3b 55 5c a3 bf a8 e4 0b c0 ab 14 df 3e
       0.0067170914 -1.2762552 -2.185831 0.43570456
0000a0 87 17 aa 3f 76 d1 a0 3e 58 0e af 3e d6 30 a9 3c
       1.328843 0.31409806 0.3419063 0.02065317
0000b0 26 fb be bd 94 c1 25 3f fc c2 37 3f d2 5c 06 be
       -0.093252465 0.647485 0.717819 -0.13121346
0000c0 39 aa dc bf d3 bc c2 bd 60 5a 35 40 38 77 21 3f
       -1.7239448 -0.095086716 2.833641 0.6307254
0000d0 e2 df 49 bf 9e dd 96 3e 2b d1 8e bf 7a d6 82 bf
       -0.78857243 0.29465955 -1.1157583 -1.0221703
0000e0 02 53 f4 3d 5b b9 7c bf 54 cd a2 3f 57 e5 7b bf
       0.11929895 -0.9872033 1.2718911 -0.9839682
0000f0 3d 7d 2b 3f 14 2a bb 3e cf 19 2e bf d7 ef af 3f
       0.66987973 0.3655554 -0.6800813 1.3745068
000100 2a 41 79 3f a0 ef bb 3d df f9 a6 3e 5d 77 43 3c
       0.9736506 0.09176564 0.32612512 0.011930314
000110 ab e9 63 3f e1 0f 99 3f 12 24 87 bf 68 c0 fe be
       0.89028424 1.1957971 -1.0557883 -0.4975617
000120 1d 04 e2 bd 4f 74 bc 3e 2d 2c 8b bf 47 98 af 3f
       -0.11035941 0.36807486 -1.0872856 1.3718346
000130 94 ab b2 3d ca 96 66 3f 64 25 6b bf 85 26 e0 3f
       0.08724132 0.90073836 -0.9185393 1.7511755
000140 ee 56 1a 3f 2b 67 6c be f7 a0 3e bf 73 31 f3 be
       0.60288894 -0.2308623 -0.7446436 -0.47498664
000150 ab 92 7d bf 53 5e e3 3f b3 20 e3 3e aa 9d 8a be
       -0.9905192 1.776316 0.44360885 -0.27073413
000160 6a d4 98 3f 3b bb 1d 3f 40 e1 99 bf 46 b3 7b bf
       1.1939824 0.61613816 -1.2021866 -0.98320425
000170 6e 1c b6 3e 79 63 30 3d 0e e6 b2 bf 79 28 10 40
       0.35568565 0.043063615 -1.3976457 2.2524703
000180 09 83 87 bf 49 b6 62 bf b9 82 36 bf 0d dc 98 bf
       -1.0586864 -0.88559395 -0.71293217 -1.1942154
000190 a3 22 8e 3f f3 a1 e1 3f a0 1c 7a 3f 6a e8 aa 3e
       1.110432 1.7627548 0.9769993 0.33380443
0001a0 f4 26 62 bf 91 16 88 be d4 30 c2 3f aa d8 93 3f
       -0.8834069 -0.26579717 1.5171151 1.1550496
0001b0 2f ca b0 3e 72 29 e8 3e bb 34 75 be ce b3 f5 3f
       0.34529254 0.4534412 -0.23945896 1.9195497
0001c0 1d 33 b3 bd 5e 13 5d 3f 35 f0 62 3f d8 1c d8 be
       -0.087499835 0.86357677 0.88647777 -0.42209506
0001d0 e8 d2 c0 3f 13 21 59 bf 6e c2 ff 3e 3f 83 96 bf
       1.5064363 -0.8481609 0.49953026 -1.1758803
0001e0 d0 1f 73 3f 2d 55 d9 3e 37 1d d5 3f 10 a3 b3 bc
       0.9497042 0.42447796 1.6649541 -0.02192834
0001f0 ee c9 8e 3e 60 ef 0e bf 2d 5d a6 3f 7e d2 38 3f
       0.27888435 -0.5583401 1.2997185 0.72196186
000200 61 29 83 3d 57 a9 c3 3f 20 55 f0 3f 45 eb 59 bf
       0.06404377 1.5286053 1.8775978 -0.8512462
000210 85 50 a0 3f 29 1a c1 bd 55 34 cf bf 0f 17 0f bf
       1.2524573 -0.09428818 -1.6187845 -0.5589456
000220 2b d1 25 3f 06 d9 0c be 71 2c 8f bd eb c4 75 3e
       0.6477229 -0.13754663 -0.069908984 0.240009
000230 1f d2 3e 3f 47 e5 79 3e 7e b6 34 bf c4 df 4c 3e
       0.7453937 0.24403869 -0.7059096 0.20007235
000240 aa 42 0d bf 49 13 fa 3e eb 61 35 be 5a b5 2e bf
       -0.55179846 0.48842838 -0.17713134 -0.6824547
000250 05 f0 51 3e 08 4b 44 3f 96 d2 1f bf 16 2e 62 3f
       0.20501716 0.7667699 -0.62430704 0.8835157
000260 4b 26 06 40 f5 c8 42 c0 70 d5 3d be 0b 6d 65 3f
       2.0960872 -3.0435154 -0.18538451 0.8961951
000270 93 23 b9 bf 29 07 ad 3b f2 c6 bd 3d 35 86 f2 3e
       -1.4463981 0.0052803946 0.092664614 0.47368017
000280 09 4e ee be 05 85 86 3f 35 a6 80 bc 06 5f 8a be
       -0.4654391 1.0509344 -0.015704254 -0.27025622
000290 50 77 7c bf 41 f1 a5 bf 45 9e f8 3e 69 da 54 3e
       -0.98619556 -1.296425 0.4855825 0.20786442
0002a0 b5 a9 67 bf 82 4d db 3d c3 12 c6 be df ae 9d 3f
       -0.9049333 0.10708143 -0.3868619 1.2318991
0002b0 c5 d2 26 3e 07 2b f8 3e 9e 5b 5c 3f 53 a5 a0 bf
       0.1629134 0.48470327 0.86077297 -1.2550453
0002c0 87 3a cb 3e f8 ef 34 bf 88 fe 62 3f d5 4d a0 bf
       0.3969309 -0.70678663 0.88669634 -1.2523752
0002d0 19 8c aa 3f d5 4f 2c 3c 94 40 e2 bf b5 7e 08 40
       1.3324004 0.01051708 -1.7675958 2.1327336
0002e0 e3 86 49 be fe 93 a3 bf f7 60 70 3f c3 47 32 3f
       -0.19680361 -1.2779539 0.93897957 0.6964075
0002f0 7b bc 11 3e b1 f3 9d 3e ba 02 8c bf b6 7c 29 bf
       0.14232056 0.30849984 -1.0938332 -0.6620592
000300 b6 f0 6f bf d2 6b de 3f 32 6a c6 bf f8 13 1f c0
       -0.9372667 1.7376654 -1.5501158 -2.4855938
000310 58 71 c4 bd 8c b4 16 bf d9 09 e9 3f d8 81 14 bf
       -0.09591931 -0.5886924 1.820613 -0.58010626
000320 cb d1 1f 3f d8 f0 fa be 2c 0e f7 be b0 9c 39 3f
       0.62429494 -0.49011874 -0.48253 0.7250471
000330 99 15 2a be a7 f2 eb bd bc a0 f4 bf f3 40 06 3f
       -0.16609801 -0.11520892 -1.9111552 0.52442855
000340 c8 d9 a8 bc 67 aa 60 be 48 55 d5 bf a7 62 92 be
       -0.020611659 -0.21940003 -1.6666651 -0.2859089
000350 c2 88 3d be 5c d1 91 3f 28 ae f4 be 30 d3 11 3e
       -0.185092 1.1392016 -0.4778912 0.14240718
000360 44 e1 85 bf 53 4b 1e bc 58 e9 34 bf 09 7f b1 3e
       -1.0459371 -0.009661513 -0.70668554 0.34667233
000370 5c 6f a7 bd d9 fa 1e 3f 95 70 ae 3f 7a ce 42 3f
       -0.08175537 0.62101513 1.3628107 0.7609631
000380 cb 13 08 be 45 81 95 3f f4 ac 8b bf 73 04 a4 bf
       -0.132888 1.1680075 -1.0912156 -1.2813858
000390 64 03 a4 be fd 67 32 c0 d1 c9 a3 3e 06 0d 37 3f
       -0.32033837 -2.787597 0.3198991 0.7150425
0003a0 e8 57 93 be 29 4c 7a 3d 49 e4 fa be 3a ed 89 bd
       -0.28778005 0.06110779 -0.49002293 -0.067347005
0003b0 80 c3 74 3f 4e 89 29 3f 9d 81 57 3e dc c6 e5 3d
       0.9561081 0.66225135 0.21045537 0.1121957
0003c0 5b 4b de bf 91 69 a3 bf 33 f6 4b 3e a5 83 40 bf
       -1.7366747 -1.2766591 0.19918136 -0.75200874
0003d0 bf e4 6f bf 90 9c 98 3e f2 51 10 be 58 f7 8a 3f
       -0.93708414 0.29806948 -0.1409376 1.0856733
0003e0 91 a8 0e 3f 65 22 a0 3f 90 93 28 bd cd 71 ae bf
       0.5572596 1.2510496 -0.04115635 -1.3628479
0003f0 49 c8 6f 3e 7a d4 55 3f c6 ea 91 bf e4 0b 11 bf
       0.23416246 0.8352734 -1.1399772 -0.5665877

random_bias f4 [1000]
000000 f9 9d 71 40 29 38 63 3c 9c d7 05 3f 6b 79 89 40
       3.775267 0.01386837 0.5228212 4.2960715
000010 a8 13 ab 3f bd ce e8 3f 08 65 5e 40 9c db 32 3f
       1.3365374 1.8188092 3.4749165 0.6986635
000020 03 48 72 40 cf 1a e8 3e d7 5e 11 3f d7 23 b2 40
       3.7856452 0.45332953 0.5678534 5.566875
000030 35 69 ee 3f 61 09 ce 3e e3 d6 b9 40 57 eb 6a 40
       1.8625857 0.4024153 5.8074813 3.670614
000040 1d fd 2e 40 24 73 f4 3f 25 7f 6b 40 43 e7 b8 3e
       2.7341988 1.9097638 3.6796353 0.3611394
000050 0f ad fb 3e 18 57 84 40 87 5b ae 40 d5 f5 31 3f
       0.4915547 4.1356316 5.448673 0.69515735
000060 b7 56 c8 40 4c 3b b8 3f 6b e7 85 40 6e 46 5a 3e
       6.2605853 1.4393096 4.1844993 0.2131593
000070 97 28 18 40 23 86 9d 3f fc e7 b3 40 73 c9 1e 40
       2.3774774 1.230656 5.6220684 2.4810455
000080 4a df c6 40 76 25 85 40 0e d4 8e 40 eb 3d c6 40
       6.214757 4.160823 4.4633856 6.1950583
000090 4e 6a 0e 3f 38 38 a1 40 35 9e 74 40 08 16 5e 40
       0.5563096 5.0381126 3.8221562 3.4700947
0000a0 50 1e 76 3e cd 6c 3c 3e 7f b3 a1 40 73 cd bb 40
       0.24035001 0.18400879 5.053161 5.8688293
0000b0 82 78 a7 40 a1 2e 8d 40 24 8d a5 3f ab b7 aa 3f
       5.2334604 4.411942 1.2933698 1.3337301
0000c0 93 e4 bb 40 5b b6 9d 40 61 b5 97 40 3d 0e 14 3f
       5.871652 4.92851 4.740891 0.57834226
0000d0 79 f4 bb 40 a0 b1 bd 40 b8 5f 05 40 01 db 18 40
       5.873593 5.9279327 2.0839672 2.388367
0000e0 51 5e a8 40 c2 a1 bc 40 3a ec ec 3e be a8 0d 40
       5.261513 5.894746 0.46273977 2.2134242
0000f0 ff 28 50 3f f8 b7 80 40 0d 1a 3a 40 21 b9 c3 3f
       0.81312555 4.022457 2.90784 1.5290872
000100 0a 43 f5 3f dd ab c4 3f 62 24 5f 40 70 72 14 40
       1.9161084 1.5364949 3.4865956 2.3194847
000110 89 b1 9e 40 d5 65 86 40 05 b9 e9 3f de 6a 85 40
       4.959172 4.1999307 1.8259588 4.1692953
000120 15 f8 20 40 ed 89 54 40 08 47 de 3e d7 6a 4e 40
       2.5151417 3.3209183 0.43413568 3.225271
000130 ba 09 aa 3f 75 af 14 40 06 a1 17 40 e9 a7 7d 3f
       1.3284218 2.323209 2.369203 0.99084336
000140 74 57 6b 3f d7 96 36 40 a3 17 96 40 f6 fe 8f 40
       0.9193032 2.8529565 4.6903853 4.499873
000150 b4 f0 91 3f 41 bd 8b 40 e7 29 2e 3f f8 18 bb 40
       1.1401582 4.3668523 0.6803269 5.846798
000160 36 f9 7f 40 d7 48 5c 3f 2e 90 0f 40 36 f8 1e 40
       3.9995856 0.86048645 2.243175 2.4838996
000170 d2 31 b7 40 d4 23 20 40 12 4c 91 40 c6 83 4f 40
       5.7248316 2.5021868 4.540536 3.2424178
000180 88 f8 08 40 e9 ee 00 40 d0 21 da 3b ed f2 df 3d
       2.1401691 2.014582 0.006656863 0.10935006
000190 3b 02 b6 40 90 84 41 3f 48 cb 61 40 7f 76 76 40
       5.6877723 0.755929 3.5280323 3.8509824
0001a0 6b 68 e0 3f 6b 80 55 40 65 b9 ab 40 92 d4 1d 40
       1.7531866 3.335963 5.366381 2.4660993
0001b0 69 2b a7 40 b4 5c a0 40 ed e1 5e 3f cf 5d 54 40
       5.224049 5.0113163 0.87063485 3.3182256
0001c0 dc 76 aa 40 0a 4f c8 3f df 89 a2 40 db a8 20 40
       5.327009 1.5649121 5.07933 2.5103061
0001d0 af 9c f9 3f 3e 01 37 40 95 86 48 3f e2 e3 b0 40
       1.9500941 2.8594508 0.78330356 5.5278177
0001e0 89 cc b0 3d e7 08 c3 40 78 46 db 3e 11 41 26 40
       0.08632762 6.0948367 0.428272 2.5977213
0001f0 be a5 f1 3f 64 82 70 40 d1 c7 11 40 92 5a 8b 40
       1.8878706 3.7579584 2.2778208 4.354806
000200 53 dc 9e 3f 2c ed a6 3e 21 30 b8 40 d7 d9 9e 40
       1.2410988 0.32602823 5.755875 4.964092
000210 3b df 8c 40 00 35 65 40 3f fd 59 40 aa aa 51 40
       4.40225 3.5813599 3.406082 3.2760415
000220 b2 fd 05 40 b1 97 40 3f 71 9f a9 40 e4 16 b8 40
       2.0936093 0.7523146 5.300713 5.7527943
000230 59 08 99 40 c0 76 6e 40 ac 4f 99 3e 2c d8 85 40
       4.782269 3.725998 0.29943597 4.182638
000240 1d ac 5d 3f c2 9a 5d 40 ff c8 78 40 40 97 6d 40
       0.8659075 3.4625707 3.8872678 3.7123566
000250 d4 e8 85 3f 9c fb 12 40 98 99 97 3f 05 5f b2 40
       1.0461679 2.296607 1.1843748 5.574099
000260 16 cc 8e 40 b9 aa c8 3f f5 9f 2e 40 49 b3 1a 3f
       4.462413 1.56771 2.728513 0.6042982
000270 23 1e 09 40 45 29 ac 40 d2 bd 1c 40 0a dd 07 3f
       2.1424644 5.380038 2.4490857 0.53071654
000280 7e ee 3b 40 91 a4 c5 3f ca 5f 2c 40 e0 5e 26 40
       2.9364314 1.5440847 2.6933465 2.5995407
000290 ac ff 6c 40 58 fb 2d 3e 5c 54 4c 40 95 e4 b8 40
       3.703105 0.16990411 3.192649 5.777903
0002a0 50 8d 49 40 c6 2d 97 3f 17 c1 a6 3f 44 99 ca 3f
       3.14925 1.1810844 1.3027676 1.5828023
0002b0 e1 b6 01 40 8e b0 72 40 cd bf 15 3f 82 c9 a9 3c
       2.026787 3.792026 0.5849579 0.02072597
0002c0 dc 9c ac 3d 94 7b 76 3f 00 4b 34 40 dc f7 05 3f
       0.08428356 0.96282315 2.8170776 0.5233133
0002d0 60 9c c3 3f 20 ce 0a 40 7d dd 8f 40 1a 1f 6f 40
       1.5282097 2.1688309 4.495787 3.7362733
0002e0 47 b7 00 40 a6 53 a1 3f 21 c1 fc 3e c0 d0 63 40
       2.0111864 1.2603652 0.49366096 3.559616
0002f0 5b c0 f0 3e d7 1a 83 40 b5 1d 0e 3f 73 00 82 40
       0.47021756 4.0970263 0.5551408 4.062555
000300 87 e4 f6 3f c0 ec 9e 40 e8 db 7d 40 51 17 b3 40
       1.9288491 4.9664 3.966547 5.5965962
000310 8e 29 c5 3f 7f 74 8a 40 82 ba 7c 40 55 fb b5 40
       1.5403306 4.3267207 3.9488835 5.68693
000320 1e f6 9f 40 37 87 fb 3f 0a fb a2 40 32 fd 66 40
       4.9987936 1.9650639 5.0931444 3.6092038
000330 fd b4 a9 3e 84 53 67 3e 5d 95 44 40 35 63 a3 40
       0.33145896 0.22590452 3.0716164 5.10586
000340 e4 33 7a 40 cc 6b 2b 40 d0 29 96 40 25 53 62 40
       3.9094172 2.6784544 4.692604 3.5363247
000350 2b 97 ce 3f 4f fa b4 40 41 44 a8 40 a7 14 f5 3f
       1.6139883 5.6555552 5.258332 1.9146928
000360 f5 94 a9 40 c5 99 0a 40 cf 37 b9 40 89 c8 45 3f
       5.299433 2.1656353 5.7880626 0.7725912
000370 89 f5 3c 3f 13 f9 db 3f 04 8b 2c 40 b8 5b 1b 40
       0.73812157 1.7185386 2.6959848 2.427473
000380 e2 ae b5 40 e2 d9 c7 40 00 e2 c0 40 a9 45 ec 3f
       5.677598 6.245347 6.027588 1.8458759
000390 94 45 90 40 ad 59 70 40 e5 99 38 40 78 a8 24 3f
       4.5084934 3.7554734 2.884393 0.6431956
0003a0 bd 0f 01 3e 95 7d 7c 3e 92 d7 b3 40 40 8f 2a 40
       0.1260366 0.2465728 5.6200647 2.6649933
0003b0 80 c5 9f 40 93 6b a0 3f 72 5e 54 40 f3 65 b8 40
       4.992859 1.2532829 3.3182645 5.762445
0003c0 3a 41 5c 40 bd 83 93 40 b2 3b 43 3f e1 05 3d 40
       3.441481 4.6098313 0.7626296 2.9534838
0003d0 81 01 c3 3f a8 37 04 40 af f8 03 40 20 c7 c1 3f
       1.5234834 2.065897 2.0620534 1.5138893
0003e0 08 5e c8 40 7b 44 9c 40 91 43 2f 40 cc 47 82 40
       6.2614784 4.8833594 2.738499 4.0712643
0003f0 76 84 b9 40 b9 a9 c3 40 a6 77 46 40 38 87 88 40
       5.7974195 6.114468 3.1010528 4.266506

classifier.weight f4 [3, 1000]
000000 d7 fa 35 bf 66 c3 a1 3e 6b b4 bd be b1 e7 fe 3f
       -0.71085876 0.3159439 -0.3705171 1.9914457
000010 95 9f 7f bf ba 27 e4 bd 81 c2 1c 3f 57 29 a3 3f
       -0.9985288 -0.1114039 0.6123429 1.2746991
000020 36 1b b2 bc c9 67 b0 3f fc a3 85 bf 7c 46 50 3f
       -0.02174149 1.3781673 -1.0440669 0.8135755
000030 55 0d 88 bf db 1f 3d 3f 0e 80 4c bf 01 f8 e3 3e
       -1.0629069 0.7387673 -0.79882896 0.4452515
000040 ca e1 0c bf 93 63 7c 3f 86 e4 02 bf 8c 29 88 bf
       -0.55032027 0.9858944 -0.5112995 -1.0637679
000050 92 ed 81 3e f4 a4 e0 bd 06 40 86 be df 3b ef be
       0.25376564 -0.10968962 -0.2622072 -0.46725366
000060 92 8d 5f be aa 4d df bf c7 46 af 3f 34 b3 c0 bd
       -0.21831349 -1.7445576 1.3693475 -0.0940918
000070 e0 59 01 3f fb 25 82 3e ce 08 15 3f ae 6f 0a 40
       0.50527763 0.25419602 0.5821656 2.1630664
000080 53 5c a7 bd b9 26 2d 3f ce 61 6d 3e f5 cd 4a be
       -0.08171906 0.6763721 0.23181841 -0.19805129
000090 82 d9 06 3e bd 1d 66 bf 41 3d 94 be 66 64 6e 3e
       0.1316891 -0.89889127 -0.28952983 0.23280486
0000a0 2e e2 71 bf 44 43 2e 3f aa e8 82 bf 55 c0 08 3f
       -0.9448575 0.6807139 -1.0227253 0.53418475
0000b0 73 e7 4c 3f 07 85 30 3f 9d 9f 8e 3d c0 3f 64 be
       0.80040663 0.68952984 0.069640376 -0.22289944
0000c0 c3 22 a4 bf b7 f2 da be 21 65 b5 3f c4 cd 15 be
       -1.2823108 -0.42763302 1.4171487 -0.14629275
0000d0 97 80 59 3c 9a 89 98 3f 6c 17 62 3f 34 f9 50 be
       0.013275287 1.1916993 0.8831699 -0.20407563
0000e0 25 3c 38 be 9a a7 23 3e 12 77 c0 be 77 85 f7 bd
       -0.17991693 0.15981904 -0.37590843 -0.12086003
0000f0 bd 7b a6 3e c5 c6 4e 3e 71 cb fe be 42 52 c2 bf
       0.3251628 0.20193012 -0.49764588 -1.5181353
000100 ed 57 54 be aa 89 ca be d9 04 ac bc 09 8c 6b bf
       -0.20736666 -0.39558154 -0.020998405 -0.9201055
000110 58 85 ad bc f3 f0 8d 3f 95 c1 18 3f a9 a5 ac be
       -0.021181747 1.1089157 0.5967038 -0.3372014
000120 dd 97 fd be c1 24 b3 3f de 1c 2b 3f 98 c4 1d 3e
       -0.49529925 1.3995591 0.6684092 0.15407026
000130 b3 c4 cf 3f db d7 16 40 30 19 11 be 52 b9 81 be
       1.6231903 2.3569248 -0.14169765 -0.253367
000140 87 13 19 bd 94 01 04 bf 12 27 c6 bf 7f e2 c3 bf
       -0.03737214 -0.5156491 -1.5480673 -1.5303496
000150 c2 9a b8 3f 52 85 e5 3f fb 53 02 bf d4 ae bb 3d
       1.4422228 1.7931311 -0.50909394 0.09164205
000160 72 2b 18 be aa b6 d9 3d e3 d5 3b 3f 55 17 80 be
       -0.14860323 0.106305435 0.7337324 -0.250178
000170 11 d7 56 3f fa e9 02 bf 44 5a e1 bf 8a cf 43 40
       0.83921915 -0.5113827 -1.7605672 3.0595422
000180 96 fe d8 3e 63 e8 6d 3f 33 b2 e6 3e 6d 78 7a 3e
       0.42381734 0.9293272 0.4505783 0.24460001
000190 38 89 45 bf 8d 6c 11 c0 1e ee 5e 3f e2 9b f0 3d
       -0.77162504 -2.2722504 0.8708209 0.11748482
0001a0 d4 4d 68 be 6b 3f 1d be 65 ab e0 bd d8 ca 25 bf
       -0.22685939 -0.15356223 -0.10970191 -0.6476264
0001b0 5a c9 66 3f 2e cc 76 3f f6 d7 01 3f f5 37 01 3f
       0.9015099 0.96405303 0.50720155 0.5047601
0001c0 22 52 07 bf a8 8f 06 bb d1 6b b0 3f ea 0e e6 3d
       -0.528597 -0.0020532403 1.3782903 0.112333134
0001d0 a6 9c af 3e 62 b2 d6 3e 1f 67 92 3f 12 e1 97 bf
       0.342992 0.4193297 1.143772 -1.1865561
0001e0 9d c8 e0 bc 7e cc 83 bd c8 79 eb bf 79 ca d6 3f
       -0.02743941 -0.06435488 -1.839654 1.678054
0001f0 5a 83 2c bf 49 c6 02 bf 09 55 47 bd c9 72 a7 bf
       -0.67387927 -0.5108381 -0.04866508 -1.3081905
000200 9e a8 83 3f 7d 66 61 3e 89 31 22 bf 7d f2 b9 be
       1.0285833 0.22011752 -0.63356835 -0.36317816
000210 cf b2 d4 3f 2d f1 88 3f ce a8 b5 be f3 46 cb be
       1.6617068 1.0698601 -0.3548035 -0.39702567
000220 4f 4a d9 be 2d 9a 7b 3f ba 9e 8e 3f 1e 97 1f 3f
       -0.42439505 0.9828213 1.114219 0.6233996
000230 7c ba 97 3f 96 dc 07 bf b5 af 8f bd f8 0f c8 be
       1.1853786 -0.5307096 -0.07015935 -0.39074683
000240 21 f9 26 3f 94 1f 09 40 38 d7 12 bf 13 3a da be
       0.6522389 2.1425524 -0.5735965 -0.42622432
000250 15 a8 b3 3e cb 80 98 be f0 8b bd 3e a1 81 d5 be
       0.35089174 -0.2978576 0.37020826 -0.41700462
000260 58 71 c1 3f 12 c2 d7 3f ed 93 44 bf e1 11 4f bd
       1.5112715 1.68561 -0.76788217 -0.05055416
000270 fd 88 00 3f a4 72 08 3f 7f 89 76 be 20 97 ab bf
       0.5020903 0.5329993 -0.24075888 -1.3405495
000280 40 c1 f4 bc 11 fb d1 bf 5a f8 a2 be 11 63 1a 3e
       -0.029877305 -1.6404744 -0.31830102 0.15076853
000290 fe d9 2d bf 71 51 00 3f 31 9a 99 3e 9a b7 8d 3e
       -0.67910755 0.5012427 0.3000045 0.2767914
0002a0 32 2e cd 3f bf bb f7 3e 56 9b b4 3f b1 32 06 bf
       1.6029723 0.48385426 1.4109905 -0.524211
0002b0 33 1d 27 bf 0e 2f 69 3c 9c f5 41 bf 2f c6 c9 be
       -0.6527893 0.01423241 -0.75765395 -0.39409015
0002c0 aa 2e 63 bf 11 2f 7a 3f d2 7d 48 bf 2b 91 1e bf
       -0.8874308 0.9772807 -0.78316987 -0.6194026
0002d0 bc 61 02 bf 99 e7 2d be e6 6e 8a bf 42 17 fd 3e
       -0.5093038 -0.16982879 -1.0815094 0.49431807
0002e0 d4 ee 8d be 18 22 91 bf d1 63 16 bf 5c ff f4 be
       -0.27721274 -1.133853 -0.5874606 -0.47851074
0002f0 72 13 06 bc 82 d7 1c be 73 c3 72 3f a8 17 4e 3e
       -0.008183347 -0.15316585 0.9482948 0.20126212
000300 81 8e a8 3e f9 22 8c 3f 6e 9f 79 bf 50 82 b3 bf
       0.32921222 1.0948173 -0.97508895 -1.4024143
000310 7f 34 cd 3e 56 b0 7d 3f 0b da 9a 3f c4 5d 2d 3f
       0.40079114 0.9909719 1.2097791 0.677212
000320 f0 f2 47 3f 65 b5 d8 bd 52 da ee bc ee 27 b4 bf
       0.7810507 -0.10581473 -0.029156838 -1.4074686
000330 7f 00 12 3f b7 5a 35 3e 13 9e db 3f 19 7a 87 3e
       0.57032007 0.17710386 1.7157615 0.2646034
000340 d6 57 0e be aa 31 93 3c b9 cb 95 be 2d 47 66 bf
       -0.13900694 0.017968018 -0.2925699 -0.89952356
000350 72 ae 43 bf ad df be be e1 f4 86 3e e8 02 20 be
       -0.7643806 -0.37280026 0.26358703 -0.15626109
000360 15 47 c9 be 51 46 54 3f 52 e5 ea be 7a 0b a0 3c
       -0.39312044 0.82919794 -0.45878083 0.019536722
000370 93 b8 66 3f d2 c2 a6 3e 9c d5 6f 3f b7 7f ef be
       0.9012539 0.3257051 0.9368532 -0.46777126
000380 15 f0 7c be c5 de 7d 3e 69 3d 13 3d e6 61 14 40
       -0.24700959 0.24792011 0.035947237 2.3184752
000390 d8 67 ed bf 4d 06 ad bf 41 61 c6 be c8 6e 9f 3d
       -1.8547316 -1.3517548 -0.38746074 0.07784802
0003a0 42 38 b5 3e b6 8b 53 bf 2c 49 fe be 7a 23 68 3f
       0.35394484 -0.82635057 -0.496652 0.9067913
0003b0 c4 f4 3f bf fa a9 5a 3f 49 75 40 3f 3e ba dc 3e
       -0.7498286 0.85415614 0.7517896 0.43110842
0003c0 ba 53 09 bf 41 e7 86 bf f1 f4 bf bf 93 0f e4 bd
       -0.5364338 -1.0539323 -1.4996625 -0.11135783
0003d0 30 5c 2b 3f 96 dc 19 3e c3 f1 5a 3f c1 56 f7 be
       0.6693754 0.15025553 0.8552515 -0.48308375
0003e0 4d e4 06 3e ce 56 60 3f ec 23 b6 be 4a f1 a8 bf
       0.13173027 0.87632453 -0.3557428 -1.3198636
0003f0 a4 20 49 3f 09 49 06 bf 63 36 32 bf 7c b9 3d be
       0.7856543 -0.5245519 -0.6961424 -0.18527788

classifier.bias f4 [3]
000000 a2 36 51 3f c4 e6 02 bf e9 3f ad be
       0.8172399 -0.5113337 -0.33837822
